CarDriver.onnx (onnx, 87544 bytes, 8 tensors)

action_model._discrete_distribution.branches.0.bias f4 [3]
0	0xbc852025	-0.01625068
1	0x3d078830	0.033088863
2	0xbd8a73a8	-0.06760341

action_model._discrete_distribution.branches.0.weight f4 [3, 128]
0	0x3c0a9095	0.008457323
1	0xbc5c3795	-0.013440986
2	0x3cb40771	0.021976205
3	0x3c8c50bf	0.017128346
4	0x3cf5c311	0.030000241
5	0xbba0b959	-0.0049049077
6	0x3c15f9af	0.0091537675
7	0xbc567b70	-0.013090953
8	0xbbd7dc0a	-0.00658751
9	0xbca1b077	-0.019737465
10	0x3ce507f7	0.0279579
11	0xbc8d1d3b	-0.017225852
12	0x3c655297	0.013996742
13	0x3d4dd45b	0.050251346
14	0x3c28cb35	0.010302355
15	0x3c827cea	0.015928704
16	0xbc975115	-0.01847128
17	0xbbd811df	-0.0065939273
18	0x3cd6f2d7	0.026238842
19	0x3d650bdf	0.055919524
20	0xbc2a46f9	-0.010392898
21	0x3bd7a22c	0.0065806117
22	0xbd018179	-0.031617615
23	0xbc704ef1	-0.014667259
24	0x3b2e3262	0.0026580323
25	0x3c03aa9a	0.00803628
26	0x3be8f9ed	0.0071098716
27	0xbb02f900	-0.0019984841
28	0xbccf5362	-0.025308315
29	0xbb5761ba	-0.0032864646
30	0xbc2282d1	-0.009918884
31	0x3cf98d32	0.030462835
32	0x3c368ae7	0.011141515
33	0x3c88f1eb	0.016716918
34	0xbc9f5705	-0.019450674
35	0x3d1ace9b	0.03779469
36	0x3c007e4a	0.00784261
37	0x3c663a7c	0.01405203
38	0xbc277686	-0.010221129
39	0xbc70f92f	-0.0147078475
40	0x3d7ab611	0.06120879
41	0x3b3e6976	0.002905456
42	0x3d047a7c	0.032343373
43	0xbc228fc2	-0.00992197
44	0x3d306fb3	0.043075275
45	0x3c5cc54c	0.013474774
46	0xbc3bf18f	-0.011471166
47	0xbc394162	-0.011307092
48	0xbc1d9b41	-0.009619535
49	0x3b416ac7	0.0029513107
50	0x3cbbc82c	0.022922598
51	0xbc761aa0	-0.015020996
52	0xbc4ff2f0	-0.012692198
53	0x3cb7c719	0.022433804
54	0xbccbb72a	-0.024867613
55	0x3c557e7e	0.013030646
56	0xbb81f13c	-0.003965525
57	0x3cd970df	0.026543079
58	0x3d8b3d21	0.06798769
59	0xbc0dd2ee	-0.008656247
60	0xbd05a4bc	-0.032627806
61	0xbc4f641b	-0.012658144
62	0xbbb5c278	-0.005546864
63	0x3d7d1561	0.061787967
64	0xbc81d6a9	-0.015849428
65	0x3cc55914	0.024090327
66	0x3c0b1296	0.008488318
67	0xbc047d08	-0.00808645
68	0xbafa71a5	-0.0019107355
69	0x3c6928b6	0.014230898
70	0xbaf6af9e	-0.0018820649
71	0xbc98d3f7	-0.01865576
72	0x3c39d525	0.0113423215
73	0xbc55cb4d	-0.013048959
74	0x3bbfef65	0.0058573955
75	0xbc793455	-0.015210231
76	0xbce8adaf	-0.028403131
77	0x3b1deb8e	0.00240967
78	0xbc292a0c	-0.010324966
79	0xbd20ec70	-0.039287984
80	0xbb49fe4e	-0.0030821743
81	0x3b6f96a5	0.0036558297
82	0xbcf4a7b4	-0.029865123
83	0xbac25d14	-0.0014828765
84	0x3c0fc430	0.008774802
85	0xbc9b3569	-0.018946366
86	0xbcb65897	-0.02225904
87	0x3ced8604	0.028994568
88	0xbc9b7aaa	-0.01897939
89	0x3b5bed4c	0.0033558188
90	0x3c128bf8	0.008944504
91	0x3a914a38	0.0011084741
92	0xbbd37e6c	-0.0064542796
93	0xbce785f9	-0.028262125
94	0x3c396b47	0.011317081
95	0x3ab4bef2	0.0013789816
96	0x3ca95703	0.020671373
97	0xba45a705	-0.00075398415
98	0xbcd85194	-0.026406087
99	0x3ce17c66	0.027525138
100	0x3cad9987	0.021191372
101	0xbd4ff580	-0.050771236
102	0xbd1652f2	-0.036700197
103	0x3d5c36c4	0.053763166
104	0xbc92b7ce	-0.01790991
105	0x3d0dd83b	0.03463004
106	0x3c01cd87	0.007922537
107	0xbbbe70f8	-0.005811807
108	0xbc6eeeab	-0.01458327
109	0x3d44eddc	0.048078403
110	0x3ccddb55	0.025129
111	0xbd0c1a8e	-0.034205012
112	0xbc22d097	-0.009937427
113	0xbc487464	-0.012234781
114	0xbbc83a2e	-0.006110451
115	0xbbc4dca1	-0.0060077463
116	0x3bcb5e9f	0.006206348
117	0xbcbee58e	-0.02330282
118	0x3b2b8337	0.002617074
119	0x3c4b1c6b	0.012396912
120	0x3cceee16	0.025260013
121	0xbb21afb1	-0.002467137
122	0xbc9c4fc6	-0.019081008
123	0x3d5ca76c	0.053870603
124	0x3a25de0f	0.000632734
125	0xbc04fde5	-0.008117174
126	0x3d1870ff	0.037217136
127	0x3cf5edbe	0.03002059
128	0x3cd75b2e	0.026288595
129	0x38ea1543	0.0001116195
130	0x3d4bb642	0.04973436
131	0x3cac8ab9	0.021062242
132	0x3d004207	0.03131297
133	0x3d30a2a9	0.043123875
134	0x3d3f2806	0.04666903
135	0xbc6d0a96	-0.014467856
136	0x3d635461	0.055500392
137	0x3d4f2fb2	0.050582595
138	0xbcb15be6	-0.021650266
139	0x3d8f66ba	0.070020154
140	0x3d257859	0.040397976
141	0xbdc2859e	-0.09498142
142	0x3cf19e20	0.029494345
143	0xbb02decc	-0.0019969223
144	0xbc6e4673	-0.014543164
145	0x3da4cebf	0.08047246
146	0xbdc35193	-0.095370434
147	0xbdbefa5b	-0.09325095
148	0x3d0fb69b	0.035086256
149	0x3ceeaded	0.029135669
150	0x3d46c41b	0.048526864
151	0x3c27d5cb	0.010243843
152	0x3d222fb5	0.03959628
153	0x3d26ce0f	0.040723857
154	0xbd0eab33	-0.034831237
155	0xbc8f1572	-0.01746628
156	0x3d49b95f	0.04924905
157	0xbd3c529c	-0.04597722
158	0x3d3ebc26	0.04656615
159	0xbdaa1d3b	-0.083063565
160	0xbbf85aec	-0.007579198
161	0xbd62fc5c	-0.05541645
162	0x3d7d2447	0.061802175
163	0xbd67b003	-0.056564342
164	0x3c3c2c5f	0.011485188
165	0x3cfa959a	0.030588914
166	0x3d65c0cf	0.05609208
167	0x3d1fc660	0.039007545
168	0xbd1d9f93	-0.03848226
169	0x3d528df7	0.05140492
170	0xbd829936	-0.06376879
171	0x3d395acc	0.045252606
172	0xbd7e8c8c	-0.062145755
173	0xbd162e18	-0.036665052
174	0xbcfdada1	-0.030966582
175	0xbc2ee979	-0.010675781
176	0x3d4ef6d3	0.05052836
177	0x3d169b9f	0.036769506
178	0xbd28d032	-0.041214176
179	0x3d32f917	0.04369458
180	0x3d1e575a	0.038657524
181	0x3d0e0c1f	0.03467953
182	0x3d9abc1c	0.0755541
183	0x3d15d89e	0.036583535
184	0x3d096e5b	0.03355251
185	0xbd1ffc4c	-0.03905897
186	0xbd6721d8	-0.05642876
187	0x3caf6468	0.021410182
188	0xbcb0efa2	-0.02159864
189	0x3d2f1322	0.042742856
190	0x3c580585	0.01318491
191	0xbd8a3749	-0.06748826
192	0x3cdf6d28	0.02727373
193	0x3cffaa67	0.031209184
194	0x3cdef4d3	0.02721635
195	0x3d066259	0.032808635
196	0xbc544740	-0.01295644
197	0x3c521a15	0.012823601
198	0x3d4ff65b	0.050772052
199	0xbc8edf81	-0.01744056
200	0x3c652815	0.013986607
201	0x3d57bc90	0.05267006
202	0xbd58414d	-0.05279665
203	0x3d63acee	0.05558484
204	0xbc3be134	-0.011467267
205	0x3d19e959	0.037576053
206	0x3c6886d7	0.014192305
207	0x3cb90fa2	0.022590462
208	0x3d14c9ff	0.03632545
209	0xbc7b17e6	-0.015325522
210	0x3d5587a6	0.052131318
211	0xbc565603	-0.01308203
212	0x3d3d07e6	0.04615011
213	0x3ccfa30c	0.025346301
214	0x3d808e6d	0.062771656
215	0x3d03606a	0.03207437
216	0x3d4d401a	0.05010996
217	0x3d3fc12c	0.046815082
218	0x3cdcb13b	0.026939979
219	0x3d5cdc95	0.0539213
220	0xbac85ca7	-0.0015286402
221	0x3d36df4e	0.044646554
222	0xbce5ac3e	-0.028036233
223	0xbd57585e	-0.052574508
224	0xbd271325	-0.040789742
225	0xbcfe4f30	-0.031043619
226	0x3d996311	0.074895985
227	0xbd1dcd58	-0.03852591
228	0x3cfdb2ee	0.03096911
229	0x3d564c39	0.052318785
230	0x3baff0f2	0.005369299
231	0xbd1946ac	-0.037420914
232	0x3d4bc289	0.04974607
233	0xbd508b7b	-0.05091427
234	0x3c910f47	0.01770748
235	0x3d7fc53d	0.06244396
236	0xbc87e282	-0.0165875
237	0xbcaf795a	-0.02142017
238	0x3b86f48e	0.0041185087
239	0x3b957bf7	0.004561897
240	0x3d6b2ac4	0.05741383
241	0xbc1663c3	-0.0091790585
242	0xbc526111	-0.012840525
243	0x3ce92b85	0.028463135
244	0xbc19bc44	-0.009383265
245	0x3ce33831	0.027736755
246	0xbd2c5231	-0.04207057
247	0x3cb2339b	0.021753123
248	0x3d157a8f	0.036493834
249	0x3d3f5848	0.04671505
250	0x3d713be8	0.05889502
251	0xbbeec1b6	-0.0072862757
252	0x3c9a01ec	0.018799745
253	0x3d42a3d3	0.047519516
254	0xbca1afd6	-0.019737165
255	0x3d1b3140	0.037888765

action_model._discrete_distribution.branches.1.bias f4 [3]
0	0xbc88938c	-0.016671918
1	0x3c3d52e4	0.011555407
2	0x3caad4f4	0.020853497

action_model._discrete_distribution.branches.1.weight f4 [3, 128]
0	0xbc130c8a	-0.0089751575
1	0xbafeae80	-0.0019430667
2	0xbd35b49d	-0.0443617
3	0xbd78b4de	-0.060719363
4	0x3b549388	0.0032436568
5	0x3cb640df	0.02224773
6	0xbcd46f60	-0.025932014
7	0xbbf4664c	-0.007458484
8	0x3bd233e0	0.0064148754
9	0x3c97048d	0.018434787
10	0xbd893b89	-0.067008086
11	0x3c11cd8a	0.008899102
12	0x3bfc7b40	0.007705122
13	0xbbb24592	-0.0054404223
14	0x3d1871f6	0.037218057
15	0xbd912497	-0.07087057
16	0xbaf67f3e	-0.0018806232
17	0x3b1ecf60	0.0024232492
18	0xbc7d1e81	-0.015449167
19	0xbcd7ffbf	-0.026367066
20	0x3d68790e	0.05675607
21	0xbda655ff	-0.08121871
22	0x3cc5e49b	0.02415686
23	0xbd412e9d	-0.047163595
24	0xbbfae68f	-0.0076568793
25	0xbbd6cf6c	-0.0065554883
26	0x3cae4f01	0.021277906
27	0xbb8625c4	-0.0040938575
28	0xbc800649	-0.015627997
29	0x3d71c945	0.059029836
30	0x3cca2938	0.024677858
31	0x3c6bc07e	0.014389155
32	0xbcdfbea4	-0.027312584
33	0xb988ad4a	-0.00026069052
34	0x3ce1c3df	0.027559219
35	0xbd849124	-0.06472996
36	0xbd5ccfa0	-0.053908944
37	0x3cdace61	0.026709737
38	0x3c74fce9	0.014952877
39	0x3d2423e9	0.04007331
40	0xbdb0d0e3	-0.08633592
41	0x3c40d903	0.01177049
42	0xbcbffd25	-0.023436138
43	0x3ca5cd97	0.020239634
44	0xbd7555dd	-0.05989634
45	0x3cf8d455	0.030374685
46	0x3baf40da	0.005348307
47	0x3ca7a880	0.02046609
48	0xba1a464f	-0.00058851106
49	0x3c951510	0.01819852
50	0xbd8aebf7	-0.06783288
51	0x3cae2622	0.021258418
52	0x3c477c03	0.012175563
53	0x3cf942de	0.030427393
54	0x3cda7841	0.02666867
55	0x3cbd46bf	0.023105023
56	0x3ccb517b	0.024819126
57	0x3b5e8626	0.003395447
58	0xbde7b44c	-0.11313686
59	0x3d267b15	0.040644724
60	0xbd34d501	-0.04414845
61	0x3cc473d7	0.023981018
62	0xbcc94216	-0.024567645
63	0xbc3f1b41	-0.011664213
64	0xbb21b8c9	-0.002467679
65	0xbc973cb0	-0.018461555
66	0xbcf4c2f0	-0.02987811
67	0xbd1ed663	-0.038778674
68	0xbb812ab5	-0.0039418587
69	0x3d095bb2	0.033534713
70	0x3cf9b4d0	0.030481726
71	0x3d205fe1	0.039153937
72	0xbd43fd86	-0.0478492
73	0x3ce33674	0.027735926
74	0x3b2d19ec	0.0026413156
75	0x3c70c156	0.014694532
76	0xbba7c955	-0.005120436
77	0x3d2ea39a	0.04263649
78	0xbdc3898e	-0.09547721
79	0xbb521669	-0.0032056815
80	0xbc04f002	-0.008113863
81	0x3b1e2cf4	0.002413568
82	0x3d157d17	0.036496248
83	0xbdc7870c	-0.09742555
84	0x3c607f2e	0.013702197
85	0x3bf01266	0.007326412
86	0x3cf2882b	0.029605946
87	0xbc917202	-0.017754558
88	0x3d251a1e	0.04030811
89	0xbb3283b4	-0.0027239146
90	0xbced3967	-0.028958036
91	0xbcc620b9	-0.024185525
92	0xbca751f8	-0.020424828
93	0xbd546691	-0.051855627
94	0xbd852d76	-0.065028116
95	0x3c2b23c3	0.010445538
96	0xbc2acd9c	-0.010424998
97	0xbda62849	-0.081131525
98	0x3ca9244e	0.020647194
99	0xbce758ce	-0.028240588
100	0xbc9e895a	-0.019352604
101	0x3c6df8c7	0.014524645
102	0xbd05abd4	-0.03263457
103	0xbdb2a030	-0.087219596
104	0x3cf1db86	0.029523622
105	0xbc2aa57a	-0.010415429
106	0x3c8cf675	0.017207364
107	0xbb0cd201	-0.0021487477
108	0x3bf0a4ed	0.0073438794
109	0xbc992a99	-0.01869707
110	0xbd86e9f7	-0.06587594
111	0xbd994d03	-0.07485392
112	0xbb3641ce	-0.0027810219
113	0x3b7aa59e	0.0038245688
114	0xb9ef5968	-0.00045652245
115	0xbd3034d7	-0.043019142
116	0xbd2ece7c	-0.042677388
117	0x3c14fbea	0.009093264
118	0xbdda5f51	-0.106627114
119	0xbba39918	-0.0049926154
120	0xbd0d2bc6	-0.034465574
121	0x3a8017c2	0.0009772705
122	0x3985b265	0.0002550065
123	0xbddac4b0	-0.106820464
124	0x3be3d16f	0.0069524567
125	0x3c4ed61c	0.01262429
126	0xbdb9e4ec	-0.090768665
127	0xbd058bf4	-0.032604173
128	0x3cd37dac	0.025816761
129	0xbcd3e9fb	-0.025868407
130	0x3d6b27cc	0.057411
131	0x3d94ba40	0.07262087
132	0x3ce4fd8a	0.027952928
133	0xbd5abcc5	-0.05340268
134	0x3cf71bc1	0.030164601
135	0xbcb408f2	-0.021976922
136	0x3c0c7649	0.008573123
137	0xbd8d4f3b	-0.06899878
138	0x3c7becbf	0.015376269
139	0xbd10b2d8	-0.03532681
140	0xbd115c13	-0.0354882
141	0x3cfb1800	0.030651093
142	0x38f38fa9	0.00011613902
143	0x3c55cd18	0.013049386
144	0xbcaa18ad	-0.02076372
145	0xbdc690b9	-0.096955724
146	0x3d0c9766	0.034324072
147	0x3cb3245a	0.02186792
148	0xbd6368f5	-0.055520017
149	0x3d90dcfb	0.07073399
150	0xbd907f8c	-0.07055578
151	0xbb14cf5b	-0.0022706601
152	0x3c4d3544	0.012524907
153	0xbcf1a403	-0.029497152
154	0xbba4ac6b	-0.0050254366
155	0xbc8f94ee	-0.01752707
156	0x3c1b7f0b	0.009490739
157	0xbd06e3af	-0.03293198
158	0xbcdbb3e2	-0.026819173
159	0x3c32e263	0.010918233
160	0xbceaab9f	-0.028646288
161	0xbc1f3d06	-0.009719139
162	0xbd954041	-0.07287646
163	0x3becc2f1	0.0072253873
164	0x3d8c459e	0.06849216
165	0x3b863b27	0.004096407
166	0x3b51dc90	0.0032022335
167	0xbdb532d3	-0.088475846
168	0xbcd6c768	-0.026218131
169	0xbd2ef215	-0.042711336
170	0x3d24297d	0.04007863
171	0xbd8d16c6	-0.06889109
172	0x3cd007b2	0.025394294
173	0x39f24cc1	0.00046215023
174	0xbd075e5c	-0.033048972
175	0xbcc0ad03	-0.023519998
176	0x3cc734b6	0.024317127
177	0xbc2cb07e	-0.010540126
178	0x3d393ac5	0.045222063
179	0xbd82240e	-0.06354533
180	0x3bbcbd53	0.005759874
181	0x3c45345f	0.012036412
182	0xbd0ffb8b	-0.035152
183	0xbbac01d1	-0.00524924
184	0xbd1cdce5	-0.0382966
185	0xbc3e16c1	-0.011602105
186	0x3dd9a22a	0.106266335
187	0xbdb2d2ba	-0.08731599
188	0x3cc53f2d	0.024077976
189	0xbd9981cc	-0.0749546
190	0x3d2b2677	0.04178473
191	0x3d06e050	0.032928765
192	0x3cac9edb	0.021071842
193	0x3d0be5a2	0.03415454
194	0x3d56ca2e	0.052438907
195	0x3d4feea5	0.0507647
196	0xbcab1a8b	-0.02088668
197	0xbd9f47c0	-0.07777357
198	0xbb1c957b	-0.0023892808
199	0xbd3e2336	-0.0464203
200	0xbc060f86	-0.008182412
201	0x3c53e5f9	0.012933248
202	0x3cb5a140	0.022171617
203	0xbd2c3c7e	-0.042049877
204	0xbc7aa488	-0.015298016
205	0xbbf03f7f	-0.007331788
206	0xbcd549e1	-0.026036205
207	0xbd4f9ef7	-0.05068871
208	0x3d0a34bd	0.0337417
209	0xbd0da410	-0.03458029
210	0xbdb4f692	-0.08836092
211	0x3d40dc4d	0.047085095
212	0xbc4e4690	-0.012590066
213	0xbb01c7e6	-0.0019802987
214	0xbd139742	-0.036032923
215	0x3cf6c6be	0.030124065
216	0xbd45528d	-0.04817443
217	0x3c4f587c	0.012655374
218	0x3d3d9188	0.046281368
219	0x3cec0725	0.028812
220	0xbd153a7b	-0.036432724
221	0x3d5d07c9	0.053962503
222	0x3c86e631	0.016467186
223	0x3ca52dbd	0.020163411
224	0xbc8be12c	-0.017075144
225	0x3cd3325d	0.025780851
226	0xbd96c87d	-0.07362459
227	0x3cb12a4a	0.02162661
228	0x3c0abbbf	0.008467614
229	0xbd172889	-0.03690389
230	0xbd251bd3	-0.04030974
231	0xbbd21d13	-0.0064121573
232	0xbc378d0a	-0.01120306
233	0xbc9f4671	-0.019442769
234	0x3ca3b59b	0.019984057
235	0xbd6ae795	-0.05734976
236	0xbce0009c	-0.02734404
237	0x3d7e1ad4	0.062037304
238	0x3d8044c5	0.06263117
239	0xbd88d092	-0.06680407
240	0xbd333aac	-0.043757126
241	0xbc3ad126	-0.011402404
242	0xbcb9afce	-0.022666838
243	0x3d9e3dbc	0.07726619
244	0xbc9bf5b5	-0.01903806
245	0x3cf1a73d	0.02949869
246	0x3c447180	0.011989951
247	0x3d26c1d2	0.040712185
248	0x3d857012	0.06515516
249	0x39841736	0.00025194295
250	0xbd14618d	-0.036225844
251	0x3db5309a	0.08847161
252	0x3c7b6a3f	0.015345155
253	0xbce9e599	-0.028551864
254	0xbcb553fc	-0.022134773
255	0x3d04466e	0.03229373

network_body.linear_encoder.seq_layers.0.bias f4 [128]
0	0xbcc09a42	-0.023511056
1	0x3ceebcb0	0.029142708
2	0x3d02cb91	0.031932417
3	0x3d899de7	0.067195706
4	0x3cacab84	0.021077879
5	0x3d055d86	0.032559894
6	0x3d187eb1	0.037230197
7	0xbbabf7fa	-0.005248067
8	0x3cdbba2f	0.026822178
9	0xbc733577	-0.01484429
10	0x3d4fdad1	0.05074579
11	0x3ce50e6d	0.02796098
12	0x3d147995	0.036248762
13	0xbb8db952	-0.0043250704
14	0x3c292027	0.010322607
15	0x3d2b06e6	0.041754626
16	0x3cda8307	0.026673807
17	0x3ca9da66	0.020734023
18	0x3d6c76f7	0.05773064
19	0xbceda7db	-0.029010704
20	0x3c9ef106	0.019402038
21	0xbba55bbb	-0.0050463355
22	0x3d1e8f7b	0.038711052
23	0xbbbf8563	-0.0058447584
24	0x3c9d3fa4	0.019195385
25	0x3d140b26	0.036143444
26	0x3cf73d06	0.030180465
27	0x3d163a4b	0.036676686
28	0x3c3a5e7f	0.011375069
29	0x3cd12457	0.025530024
30	0xbc285f2e	-0.010276599
31	0x3c8018ad	0.015636766
32	0xbae5c059	-0.0017528638
33	0x3a86b11a	0.0010276169
34	0x3d02c780	0.03192854
35	0xbb1f333a	-0.0024292008
36	0xbbf93a91	-0.0076058586
37	0x3cac6cb7	0.021047933
38	0x3b0fd1ee	0.0021945196
39	0x3d7adba7	0.061244633
40	0xbc673ced	-0.014113647
41	0xbb027f3f	-0.001991227
42	0x3c6b5f37	0.014365963
43	0x3d3189e4	0.043344393
44	0x3c8afd4b	0.016966483
45	0x3ac62320	0.0015116669
46	0xbcb5132b	-0.022103867
47	0x3d645653	0.055746388
48	0x3cba69e8	0.022755578
49	0x3bb2a59b	0.0054518706
50	0x3d43b47c	0.047779545
51	0x3b9c541d	0.0047707693
52	0x3d70e22b	0.05880944
53	0xbbdfd50a	-0.006830816
54	0xbc033eae	-0.0080105495
55	0x3d2f8add	0.04285704
56	0x3d19cf74	0.03755136
57	0x3b62656f	0.0034545322
58	0x3b1f1b52	0.0024277759
59	0xbcb67ccc	-0.022276305
60	0x3c9fcb17	0.01950602
61	0x3bc33afb	0.0059579588
62	0x3cdcda3d	0.026959533
63	0x3d0beb40	0.0341599
64	0x3cecf338	0.02892457
65	0xb9af5ab1	-0.0003344617
66	0xbd02f2eb	-0.031969946
67	0x3ce5914a	0.02802338
68	0x3d2b436c	0.041812345
69	0xbc692c5f	-0.01423177
70	0x3d1d91ad	0.038469005
71	0x3d85d416	0.06534593
72	0xbcc6086b	-0.024173936
73	0xbaedb006	-0.0018134124
74	0x3d2acb46	0.041697763
75	0xbc48f2bf	-0.012264906
76	0xbc7000f7	-0.014648668
77	0xb99994a5	-0.00029293183
78	0x3c57c85a	0.013170326
79	0x3cc5a8da	0.024128366
80	0x3d300790	0.042975962
81	0xbc878bcd	-0.016546154
82	0x3c9a120e	0.018807437
83	0x3cf1dd3e	0.029524442
84	0x3d3423bc	0.04397939
85	0x3d2a9a8e	0.0416513
86	0x3d088a27	0.033334877
87	0x3b681a16	0.003541594
88	0x3d3206fb	0.04346369
89	0xbb4d2611	-0.0031303207
90	0xbc1bc141	-0.009506525
91	0x3ce5d065	0.028053472
92	0x3d40b552	0.04704792
93	0x3d1c9be0	0.03823459
94	0xba2f9351	-0.0006697672
95	0xbc4d9181	-0.012546898
96	0x3c57248a	0.01313127
97	0x3c507be8	0.012724854
98	0x3d4eeb7f	0.050517555
99	0x3c6ce2cd	0.01445837
100	0x3d0af696	0.03392657
101	0x3c61ec66	0.013789272
102	0x3ca99e36	0.020705324
103	0xbb31ae5b	-0.002711198
104	0x3c58bddb	0.013228859
105	0xbcc8138c	-0.024423383
106	0x3d0a81d9	0.03381524
107	0x3d0a4de8	0.033765703
108	0x3d0fb1bc	0.03508161
109	0x3a75bc65	0.0009374081
110	0x3bdbd21e	0.0067083975
111	0x3ce96279	0.028489338
112	0x3ca6729c	0.020318322
113	0x3cb8c7ab	0.022556147
114	0xbc3d2765	-0.011545037
115	0x3839df48	4.4315384e-05
116	0x3d182314	0.037142828
117	0x3d115616	0.03548249
118	0xbd4eb0a6	-0.050461434
119	0x3c4b3872	0.012403594
120	0xbc32fc76	-0.010924449
121	0x3c20ac91	0.009806768
122	0xbb39a89f	-0.0028329266
123	0xbc3495b9	-0.011022025
124	0x3cab608d	0.020920062
125	0xbb86ab9c	-0.004109813
126	0x3bf5256c	0.0074812677
127	0x3d284457	0.0410808

network_body.linear_encoder.seq_layers.0.weight f4 [128, 29]
0	0xbe4c92d7	-0.1997789
1	0x3ddb9883	0.10722449
2	0x3ddaca73	0.106831454
3	0xbed6d965	-0.41962734
4	0xbe52bc8d	-0.20579739
5	0x3e44c180	0.1921444
6	0xbd52849a	-0.05139599
7	0xbdb78ef6	-0.089628145
8	0xbd349c78	-0.044094533
9	0xbe4195fa	-0.18904868
10	0xbc4c742a	-0.012478868
11	0x3d103865	0.035210032
12	0xbe135592	-0.14388111
13	0x3e7db634	0.24776536
14	0xbe324ee0	-0.17412901
15	0x3e840b8e	0.25790066
16	0xbcad618c	-0.021164678
17	0xbecc148b	-0.39859423
18	0xbd97342c	-0.07382998
19	0xbd07571c	-0.03304206
20	0xbe4f7e62	-0.20263055
21	0xbe8028d1	-0.2503114
22	0x3e1d9b57	0.15391289
23	0x3e63b7ae	0.22238037
24	0xbed6a86f	-0.4192538
25	0x3d2ca4cc	0.04214935
26	0x3e1b4d94	0.15166312
27	0x3e70c998	0.23514402
28	0xbdf2cb6a	-0.118552044
29	0xbc164cf3	-0.00917362
30	0xbd5b6052	-0.053558655
31	0x3d07115a	0.032975532
32	0xbe6a3555	-0.22871907
33	0x3d922da3	0.07137611
34	0xbe6a9cc4	-0.22911364
35	0x3e3075fa	0.17232504
36	0xbcc8ab55	-0.02449576
37	0x3e39febb	0.18163578
38	0x3c57ca6e	0.013170822
39	0xbde741a8	-0.1129182
40	0xbd45628c	-0.048189685
41	0x3ed7237b	0.42019257
42	0xbe89bc27	-0.2690136
43	0xbdb06944	-0.08613828
44	0xbe3aaf09	-0.18230833
45	0x3da99b06	0.082815215
46	0x3ca84e6a	0.020545203
47	0x3ec875cd	0.39152375
48	0xbe358690	-0.17727113
49	0x3dfd2eb1	0.12362421
50	0xbe5f6cf0	-0.218189
51	0x3dd5f07e	0.10446261
52	0xbd2ab808	-0.041679412
53	0x3dcb668a	0.09931667
54	0x3eabc5ef	0.3354945
55	0xbe0f92d7	-0.14020859
56	0xbd901022	-0.07034327
57	0x3dd470ae	0.103730544
58	0x3e1a6d6d	0.15080805
59	0x3d45aa7c	0.04825829
60	0x3dbc2422	0.09186579
61	0x3e310185	0.17285736
62	0x3dc0cc47	0.09413963
63	0x3cc6e5a8	0.02427943
64	0xbd015322	-0.031573422
65	0x3bae3eba	0.005317536
66	0x3ec3922c	0.38197458
67	0x3cf75632	0.030192468
68	0xbd8b19c7	-0.06792026
69	0x3e28a561	0.16469337
70	0xbe0e2b54	-0.13883716
71	0xbe209c54	-0.15684634
72	0xbd0742d8	-0.03302273
73	0x3d92ca00	0.07167435
74	0xbe3ee817	-0.18643223
75	0x3e956c9d	0.29184428
76	0xbe7c3e94	-0.24633247
77	0x3d5a8c48	0.05335644
78	0x3ecf984f	0.4054589
79	0xbd2730a7	-0.040817883
80	0xbe92481f	-0.2857065
81	0xbd906123	-0.07049777
82	0xbe58aba9	-0.21159233
83	0x3e12f217	0.14350162
84	0x3e29b2db	0.16572134
85	0xbde713f6	-0.11283104
86	0x3e421d03	0.1895638
87	0x3e7baab2	0.24576834
88	0x3d17310e	0.036912017
89	0x3e2205ea	0.15822569
90	0x3edd82e3	0.4326392
91	0xbe1f0ce7	-0.15532266
92	0x3e905ed1	0.2819734
93	0xbefefb39	-0.49801043
94	0x3dad5776	0.084639475
95	0x3dd7d37a	0.10538383
96	0x3e56b953	0.20969133
97	0x3d75aa05	0.059976596
98	0x3d46d4d3	0.04854281
99	0xbda1102b	-0.07864412
100	0x3d21ab06	0.03946974
101	0x3e2e074d	0.16994973
102	0x3ead9593	0.3390318
103	0x3eb753d1	0.35806134
104	0xbd2c5dea	-0.04208175
105	0x3d35d4c5	0.044392366
106	0xbed0139b	-0.40639958
107	0x3e711ede	0.23546931
108	0x3e294480	0.16530037
109	0x3eb31742	0.34978682
110	0x3ed3b585	0.41349426
111	0xbcce6fce	-0.025199797
112	0xbeba8ec8	-0.36437058
113	0xbe1f9a55	-0.15586217
114	0xbe9b2626	-0.30302542
115	0xbae13f18	-0.0017184941
116	0xbd2d0ec0	-0.042250395
117	0xbe779167	-0.2417656
118	0xbd96db03	-0.07365992
119	0x3eb021bb	0.34400734
120	0xbd9f73da	-0.07785769
121	0x3e812d25	0.25229755
122	0xbe645bee	-0.22300693
123	0x3ddc551f	0.10758423
124	0xbcf47448	-0.029840603
125	0xbb51a340	-0.0031988174
126	0x3e8dda46	0.27705592
127	0xbdaeb22e	-0.08530079
128	0xbdc9df46	-0.09857039
129	0x3e9dc243	0.30812272
130	0x3def61f0	0.11688602
131	0x3e94f6e2	0.29094607
132	0xbe28f7a8	-0.16500723
133	0x3e461c5f	0.1934676
134	0xbebf1df5	-0.37327543
135	0xbe011537	-0.12605749
136	0xbce08bdc	-0.02741044
137	0x3efae40b	0.49002108
138	0xbeaec325	-0.34133258
139	0x3e9cada3	0.30601224
140	0x3e4141c8	0.1887275
141	0xbd016216	-0.031587683
142	0xbd577ef9	-0.052611325
143	0xbea8340d	-0.32852212
144	0xbe0a3061	-0.13495018
145	0x3ea32a06	0.31868
146	0x3de1c4f4	0.11023894
147	0xbc83510e	-0.01602986
148	0xbcb32da3	-0.021872347
149	0x3e2ceff8	0.16888416
150	0xbe0c7a6f	-0.1371858
151	0x3e2fa88f	0.17154144
152	0x3e89b646	0.26896876
153	0x3eda87d1	0.42681745
154	0xbdb98b7a	-0.09059806
155	0xbc821953	-0.015881216
156	0x3dcbfafe	0.09959982
157	0x3c53386f	0.012891873
158	0x3e653df8	0.2238692
159	0xbda0fccc	-0.07860717
160	0x3e5d3543	0.21602349
161	0x3d65709c	0.056015596
162	0xbdd31ad5	-0.10307852
163	0x3e359c2e	0.17735359
164	0xbd838412	-0.06421675
165	0xbe515b82	-0.20445064
166	0x3e9106d1	0.28325513
167	0xbd091e00	-0.033475876
168	0xbd52e91a	-0.051491834
169	0x3e86d074	0.26330912
170	0xbddc07f7	-0.10743707
171	0x3db2e1d8	0.087344825
172	0xbddf333d	-0.10898445
173	0xbe23a9e2	-0.15982774
174	0xbd8260ee	-0.06366144
175	0xbd8b3dd0	-0.06798899
176	0x3d617438	0.055042475
177	0xbec0a911	-0.37628987
178	0x3ddf26c4	0.10896066
179	0xbe9e46e0	-0.30913448
180	0x3eb70663	0.3574706
181	0xbe240f65	-0.16021498
182	0x3e9f37c2	0.31097227
183	0xbcb45d5b	-0.022017172
184	0xbcbfc19a	-0.023407746
185	0xbeb2372c	-0.34807718
186	0x3eca343d	0.3949298
187	0x3d80cff8	0.06289667
188	0xbe2db771	-0.16964509
189	0x3e123f0f	0.14281867
190	0xbee48a96	-0.44636983
191	0xbce83046	-0.028343331
192	0x3d176200	0.036958694
193	0x3da532b3	0.08066311
194	0xbe35221d	-0.17688794
195	0xbe65afa4	-0.22430283
196	0x3e308649	0.17238726
197	0xbdc8bdb4	-0.09801808
198	0xbebdbb4f	-0.37056968
199	0x3cc09ec8	0.023513213
200	0xbd3d4b17	-0.04621419
201	0x3e08c3a1	0.13355877
202	0xbe37fe9a	-0.17968217
203	0x3d0540ce	0.032532506
204	0x3d1986b2	0.03748197
205	0x3da95fb5	0.08270208
206	0xbe295edf	-0.16540097
207	0x3e0f224a	0.13977924
208	0x3dad5433	0.08463325
209	0x3e8302fa	0.25588208
210	0xbdf88527	-0.12134772
211	0xbe530048	-0.20605576
212	0x3dc2769c	0.09495279
213	0x3d3d8536	0.046269618
214	0x3da49e72	0.080380335
215	0x3d2ed1da	0.0426806
216	0xbd8bd743	-0.06828167
217	0xbe1f7744	-0.1557284
218	0xbedf1576	-0.4357106
219	0xbed28df4	-0.41123927
220	0x3e278e16	0.16362795
221	0x3ea0d5b7	0.3141305
222	0xbddf2e07	-0.10897451
223	0xbd54368f	-0.051809844
224	0x3e0b06ba	0.13576785
225	0x3e9ed53d	0.31022063
226	0xbd0ffc46	-0.035152696
227	0x3d93eb85	0.07222656
228	0xbd5a249f	-0.05325758
229	0xbd4d54a7	-0.05012956
230	0x3dd20596	0.10254972
231	0x3cec1c36	0.028822046
232	0x3de420b0	0.11139047
233	0x3e75fc8e	0.24022123
234	0x3d3d36e6	0.046194933
235	0xbdb28ed5	-0.08718649
236	0xbc91b0c4	-0.017784484
237	0x3ddcfb9c	0.10790178
238	0xbc9bb8db	-0.019009044
239	0xbdebebee	-0.115196094
240	0x3eaa130f	0.33217666
241	0x3d3ff0ba	0.046860434
242	0xbea3707d	-0.3192176
243	0x3d7ec5b3	0.06220026
244	0x3e97e636	0.29667825
245	0xbe5cdbd7	-0.21568237
246	0xbd63d599	-0.055623624
247	0x3d013030	0.031540096
248	0xbe5277e5	-0.20553549
249	0x3e43a171	0.19104554
250	0x3db9a2c5	0.09064249
251	0x3ef1f2a4	0.47255433
252	0x3eb36abe	0.35042375
253	0x3df26192	0.11835016
254	0x3e4dee3f	0.20110415
255	0x3d4c035a	0.049807884

network_body.linear_encoder.seq_layers.2.bias f4 [128]
0	0x3bc63f1d	0.006050004
1	0x3d0c4d0a	0.034253158
2	0x3cbbcb93	0.02292422
3	0x3cff2224	0.03114421
4	0x3cccaeef	0.024985759
5	0x3d058e71	0.032606546
6	0x3c8a33a8	0.016870335
7	0x3c854485	0.016268024
8	0x3b4b1673	0.0030988723
9	0x3d063dc6	0.032773755
10	0x3d156ae3	0.03647889
11	0x3d286353	0.041110348
12	0x3d6556fc	0.055991158
13	0xbb4c23aa	-0.0031149187
14	0x3c830c7c	0.015997164
15	0x3d19751b	0.037465196
16	0x3d054232	0.032533832
17	0x3d9ba522	0.07599856
18	0xbc405448	-0.011738844
19	0xbbc9efde	-0.0061626276
20	0x3cb1e5a6	0.02171595
21	0x3cbf80a3	0.023376768
22	0x3cccd84c	0.025005482
23	0x3d0930f1	0.03349394
24	0x3bfa4d5f	0.007638618
25	0x3cffd659	0.031230139
26	0xbd0ced82	-0.034406193
27	0x3ca9ac9d	0.020712191
28	0xbbac2277	-0.005253132
29	0xbb925b0e	-0.004466421
30	0x3c797799	0.015226268
31	0x3c011bff	0.00788021
32	0x3ceba07f	0.028763054
33	0xbcbfde80	-0.023421526
34	0x3d00a13a	0.031403758
35	0x3cde35b7	0.027125223
36	0x3ccbe5da	0.024889875
37	0xbaf0aca6	-0.0018362
38	0x3998871e	0.0002909237
39	0x3d140af1	0.036143247
40	0x3d35f26c	0.044420645
41	0x3d218a82	0.039438732
42	0xbbcec6b5	-0.006310309
43	0x3d1686eb	0.03674976
44	0x3af61b22	0.0018776397
45	0x3aa7453b	0.0012761721
46	0x3cbabb10	0.022794276
47	0x3d0ae1d0	0.033906758
48	0x3ae5c812	0.0017530939
49	0x3cd1cc04	0.025609978
50	0x3ba7518d	0.005106157
51	0x3cfbcb81	0.030736687
52	0xb9e709f6	-0.00044067175
53	0x3b07bdc7	0.0020712481
54	0x3d0730f7	0.03300568
55	0xbb43014a	-0.0029755407
56	0x3c767e3c	0.015044745
57	0x3c8917e8	0.016735032
58	0x3c96e3c2	0.01841915
59	0x3d0db7f8	0.034599274
60	0x3bc48c93	0.005998203
61	0x3cef518f	0.029213695
62	0x3c4e6b88	0.01259888
63	0x3960daef	0.00021443864
64	0xbbfc5087	-0.0077000293
65	0x3c9614d0	0.018320471
66	0x3c8eaacc	0.017415427
67	0x3c5b2f3f	0.013377964
68	0x3d07ef1e	0.033187024
69	0x3d1d6cdd	0.0384339
70	0x3bcc3545	0.006231936
71	0x3c6a0cae	0.01428525
72	0x3cb3cde1	0.021948757
73	0xbc2f8937	-0.010713867
74	0xbd2f62c7	-0.04281881
75	0x3d0bf904	0.034173027
76	0x3cb33f9a	0.021880914
77	0xbbb12ccd	-0.005406952
78	0x3d32984c	0.043602273
79	0x3cf97b3b	0.030454269
80	0x3c18dd0d	0.009330046
81	0x3d0a5a7a	0.03377769
82	0x3d0c4d5c	0.034253463
83	0x3d3a7cdd	0.045529235
84	0x3b4cc06a	0.0031242617
85	0xbc22903e	-0.009922085
86	0x3cc2b987	0.023770107
87	0x3c757516	0.014981529
88	0x3ca2435e	0.019807514
89	0x3c07f6b1	0.008298562
90	0x3bff8fc2	0.0077991197
91	0x3c10bcc8	0.008834071
92	0x3d090148	0.033448488
93	0x3c6b1593	0.014348405
94	0x3c55b953	0.013044673
95	0xbcd9eb50	-0.026601464
96	0x3c88ce78	0.016700014
97	0x3ca0616a	0.0195777
98	0x3d1983f9	0.037479375
99	0x3c22eff8	0.009944908
100	0xbb8caa30	-0.004292749
101	0x3cba7f12	0.02276567
102	0x3cfe400d	0.031036401
103	0x3cfbb849	0.030727522
104	0xba43e35f	-0.00074725406
105	0x3cedb374	0.029016234
106	0xbc10a2a5	-0.00882784
107	0x3d376eb3	0.044783305
108	0x3cec675e	0.028857883
109	0x3c6af9a8	0.014341749
110	0x3d101ee6	0.035185717
111	0x3d5b1821	0.053489808
112	0x3d2281d4	0.039674595
113	0x3d0fb567	0.035085108
114	0x3cc6975d	0.024242098
115	0x3cb9ac6e	0.022665229
116	0x3ce8bd7b	0.028410664
117	0xbc071e5d	-0.008246985
118	0x3d0620e0	0.032746196
119	0x3c9e2945	0.019306788
120	0x3c9e2470	0.019304484
121	0xbbbc1fb2	-0.005741083
122	0x3d4b8825	0.049690384
123	0x3cfd9238	0.030953512
124	0x3bc559aa	0.0060226517
125	0x3cfbdb12	0.03074411
126	0x3d1e76f1	0.03868765
127	0x3cb46905	0.022022733

network_body.linear_encoder.seq_layers.2.weight f4 [128, 128]
0	0xbd454832	-0.048164554
1	0xbd7d2bae	-0.061809234
2	0x3dc776ee	0.09739481
3	0xbe938459	-0.2881191
4	0x3d587455	0.052845318
5	0x3e06e9a7	0.13175069
6	0x3d6176da	0.055044986
7	0x3e50fe3a	0.2040948
8	0x3d4e1576	0.050313435
9	0x3dca470c	0.09876832
10	0x3e09f22d	0.13471289
11	0xb9d07351	-0.0003975877
12	0xbd07a960	-0.033120513
13	0xbdf80dc4	-0.121120006
14	0x3c84b1eb	0.01619812
15	0x3e50abd2	0.20378044
16	0xbca7a979	-0.020466553
17	0xbde17ebd	-0.110105015
18	0xbe090bab	-0.13383357
19	0x3d13e08e	0.036102824
20	0x3d85f33c	0.06540534
21	0x3e275c8f	0.16343902
22	0x3d93bc45	0.07213644
23	0x39a30630	0.00031094393
24	0xbdd3b7ba	-0.103377774
25	0xbe1c22a8	-0.15247595
26	0x3db2727c	0.087132424
27	0xbd6c490d	-0.057686854
28	0x3df74efe	0.120756134
29	0x3e1e38b5	0.1545132
30	0x3cce66c4	0.025195487
31	0x3d10e8f8	0.035378426
32	0x3d9a92bf	0.07547521
33	0x3d962461	0.073311575
34	0x3cc9516d	0.02457496
35	0x3d9a5c3c	0.075371236
36	0xbd8d78ed	-0.069078304
37	0x3c019dff	0.007911204
38	0xbd1d2f99	-0.03837547
39	0xbe062b15	-0.13102372
40	0x3da64ea1	0.08120466
41	0xbb028f1a	-0.001992172
42	0x3ce4d854	0.027935185
43	0xbc59ff69	-0.013305523
44	0xbd070fc5	-0.032974023
45	0xbdb54bfa	-0.08852382
46	0x3daa10c3	0.08303978
47	0x3d6f5835	0.05843373
48	0xbc954f66	-0.018226337
49	0x3e48f485	0.19624527
50	0xbc9566f3	-0.018237567
51	0xbdb5b8aa	-0.088731125
52	0x3de78528	0.113046944
53	0xbcb65e3a	-0.022261728
54	0xbe08eed6	-0.13372359
55	0xbdc2b088	-0.09506327
56	0x3d0af2ed	0.03392308
57	0xbe05372b	-0.13009326
58	0xbc4b3398	-0.012402438
59	0x3dd2961e	0.10282539
60	0x3d73af67	0.05949345
61	0x3dc0ffa4	0.094237596
62	0x3ccfbf1f	0.025359688
63	0xbd45959d	-0.048238385
64	0x3ce1a0dc	0.027542524
65	0xbd601aa5	-0.05471291
66	0xbc13c78d	-0.009019745
67	0xbc56d152	-0.013111429
68	0x3cefe7fe	0.029285427
69	0x3db2ee55	0.087368645
70	0x3da31dc9	0.079646654
71	0x3d1f8231	0.03894252
72	0xbe0870d1	-0.13324286
73	0x3d7968d0	0.060890973
74	0xbd9966c4	-0.07490304
75	0xbd941bf4	-0.07231894
76	0xbd6cd453	-0.057819676
77	0x3c65b7c0	0.01402086
78	0xbdacec64	-0.084435254
79	0xbdbd12ec	-0.09232125
80	0x3e838060	0.2568388
81	0xbdeefd35	-0.11669389
82	0xbd1c6be6	-0.038188837
83	0xbb57b575	-0.0032914553
84	0xbb0a5805	-0.0021109593
85	0xbc9ad16c	-0.018898688
86	0x3e29b65a	0.16573468
87	0xbdf2fe29	-0.118648835
88	0xbd55b4b9	-0.052174304
89	0xbd455027	-0.048172142
90	0xbc914558	-0.017733261
91	0xbd2bacba	-0.04191277
92	0xbdb2d297	-0.08731573
93	0x3bc19845	0.0059080445
94	0x3d0d81b0	0.034547508
95	0xbd8f4805	-0.069961585
96	0x3e2dfc32	0.16990736
97	0xbe57907a	-0.21051207
98	0xbd96a199	-0.07355041
99	0x3d422914	0.047402456
100	0xbbf96a70	-0.0076115653
101	0x3c9436d1	0.018092545
102	0x3d8b4221	0.067997225
103	0xbd50e61a	-0.051000692
104	0x3b78abc9	0.0037944189
105	0x3dbb0631	0.0913204
106	0x3d78c0ea	0.060730852
107	0xbda50d31	-0.08059157
108	0xbdedb2e1	-0.11606384
109	0x3d669f64	0.05630435
110	0x3e37be30	0.17943645
111	0xbd869f1e	-0.06573318
112	0x3df6bb8b	0.1204749
113	0xbe42ca69	-0.19022526
114	0xbdb27558	-0.08713788
115	0x3cca51fd	0.024697298
116	0xbd30ca92	-0.043161936
117	0x3e68bd80	0.22728539
118	0xbe118154	-0.14209491
119	0x3c9acbff	0.018896101
120	0xbe2bdc68	-0.16783297
121	0x3d89c8ef	0.06727778
122	0x3d1bbe71	0.038023416
123	0x3df4033b	0.11914679
124	0x3dcfa1f6	0.101383135
125	0x3d516c94	0.05112894
126	0xbe3c6975	-0.18399604
127	0x3d42bdc8	0.04754427
128	0x3d00a172	0.031403966
129	0xbd9421c9	-0.072330065
130	0xbe01b651	-0.12667204
131	0x3b9664d9	0.0045896587
132	0xbd7291a1	-0.059220914
133	0x3e867962	0.26264483
134	0xbd8a5324	-0.06754139
135	0xbd29b8b9	-0.04143593
136	0xbd3e6997	-0.046487417
137	0xbdb20492	-0.08692278
138	0xba636a8c	-0.00086752395
139	0xbccc3ce2	-0.024931375
140	0xbb49f1c0	-0.003081426
141	0x3d2c21c9	0.042024408
142	0xbc3043f9	-0.010758393
143	0x3e044a30	0.12918925
144	0x3cb01c5f	0.021497903
145	0x3d49e60e	0.049291663
146	0xbd9eb14f	-0.07748663
147	0x3da0ccce	0.078515634
148	0x3c5b80dc	0.013397422
149	0xbd911dd8	-0.0708577
150	0x3d3ca1c6	0.046052717
151	0xbdafaff7	-0.085784845
152	0x3ccb85f4	0.024844147
153	0xbe022aac	-0.1271159
154	0xbe53cbec	-0.20683259
155	0x3daafb26	0.08348684
156	0xbdbe5858	-0.09294194
157	0xbb17c232	-0.002315652
158	0xbe2d1b99	-0.16905059
159	0xbc857bb0	-0.01629433
160	0xbdd55780	-0.1041708
161	0xbe15696a	-0.14590994
162	0x3d89af3f	0.06722879
163	0xbcfc1458	-0.03077142
164	0x3ae07a1e	0.0017126238
165	0x3d94dac5	0.072682895
166	0xbd9cb419	-0.076515384
167	0x3d277212	0.04088027
168	0x3cea922e	0.028634157
169	0xbe2aa4f1	-0.16664483
170	0x3d81f756	0.06346004
171	0x3c669ea2	0.014075907
172	0x3cd90892	0.026493344
173	0x3d727727	0.059195664
174	0xbd2ad8e7	-0.04171076
175	0x3ca12801	0.019672396
176	0x3dab0d00	0.08352089
177	0xbe2eb7a7	-0.17062245
178	0xbd240936	-0.040047847
179	0x3cff441f	0.031160412
180	0xbe2210b6	-0.15826687
181	0xbd8db3f7	-0.06919091
182	0x3d7bd498	0.061482042
183	0xbd4cc054	-0.049988106
184	0x3e0be8c5	0.13663013
185	0x3dbc050e	0.091806516
186	0xbe14f14c	-0.14545172
187	0x3df9d7ce	0.121993646
188	0x3dc62e7a	0.096768335
189	0x3d382388	0.04495576
190	0x3db9ff1d	0.09081862
191	0x3ca4cadb	0.02011626
192	0xbce687b1	-0.028140875
193	0x3e0b8639	0.1362542
194	0x3daaba6e	0.0833634
195	0xbcf71d5b	-0.030165365
196	0x3e02f093	0.12787084
197	0xbde78d18	-0.11306208
198	0xbb4c46fd	-0.0031170242
199	0xbdd42c87	-0.103600554
200	0xbe1b92ad	-0.15192671
201	0x3aca40f5	0.0015430736
202	0xbcb6cd03	-0.022314554
203	0xbd0800e0	-0.03320396
204	0x3bb0aa98	0.00539143
205	0x3d300f7d	0.04298352
206	0xbd8cb7c8	-0.06870991
207	0x3e154e78	0.14580715
208	0xbdaebac0	-0.085317135
209	0x3d456938	0.048196048
210	0xbdb48dba	-0.08816095
211	0x3cb77c8f	0.022398261
212	0x3e15c76e	0.14626858
213	0x3e476b39	0.19474496
214	0x3b836612	0.0040099705
215	0x3d245542	0.04012037
216	0xbe0df2d2	-0.1386216
217	0x3b164a3a	0.0022932426
218	0x3caaddc6	0.020857703
219	0xbd793f26	-0.06085124
220	0x3d950f8d	0.07278357
221	0xbe31c806	-0.17361459
222	0x3d22eee0	0.03977859
223	0x3d8ce232	0.06879081
224	0x3c880056	0.016601723
225	0xbdad31bf	-0.08456754
226	0x3e00f96d	0.12595148
227	0xbdaf06fe	-0.085462555
228	0xbdf4d380	-0.11954403
229	0x3dc5e82a	0.096634224
230	0x3cc726f5	0.024310568
231	0x3e86c725	0.2632381
232	0xbdd52798	-0.104079425
233	0xbdea3092	-0.11435045
234	0x3d8d5b7a	0.069022134
235	0x3d2c8598	0.042119592
236	0x3c2b65a6	0.010461247
237	0xbd6df5be	-0.058095686
238	0xbdbf4823	-0.09339931
239	0xbea8fbec	-0.330047
240	0xbe216738	-0.15762031
241	0x3daacbdf	0.083396666
242	0x3d2a4940	0.041573763
243	0x3c82f3b4	0.015985347
244	0x3d5ee952	0.05442173
245	0xbe4a6248	-0.19764054
246	0xbc9a70a8	-0.018852547
247	0x3d68df22	0.05685342
248	0x3d774430	0.060367763
249	0xbd8ad5b5	-0.06779043
250	0xbdfb4f2d	-0.12270961
251	0xbc52b680	-0.012860894
252	0xbc742d01	-0.014903308
253	0xbbdfba92	-0.006827661
254	0x3d20e8e5	0.039284606
255	0xbe12c255	-0.14331944
